…
earmanr_lung","test/spearmanr_ovary","test/spearmanr_pancreas","test/spearmanr_prostate","test/spearmanr_skeletal_muscle","test/spearmanr_small_intestine","test/spearmanr_spleen","test/spearmanr_stomach","test/spearmanr_testis","test/spearmanr_thyroid","train/hard_loss","train/loss","train/mae","train/spearmanr","train/total_loss","trainer/global_step","val/hard_loss","val/loss","val/mae","val/spearmanr","val/total_loss","Tags"
"Sei_Seqweaver","23596","13198","workergpu089","-","finished","50","IsoAbundanceModel(
  (IsoGNNModel1): GNN_Block(
    (conv1): GATv2Conv(23596, 512, heads=2)
    (bn1): BatchNorm1d(512, eps=1e-05, momentum=0.1, affine=True, track_running_stats=True)
    (conv2): GATv2Conv(512, 512, heads=1)
    (bn2): BatchNorm1d(512, eps=1e-05, momentum=0.1, affine=True, track_running_stats=True)
    (dropout): Dropout(p=0.5, inplace=False)
  )
  (IsoGNNModel2): GNN_Block(
    (conv1): GATv2Conv(512, 256, heads=2)
    (bn1): BatchNorm1d(256, eps=1e-05, momentum=0.1, affine=True, track_running_stats=True)
    (conv2): GATv2Conv(256, 256, heads=1)
    (bn2): BatchNorm1d(256, eps=1e-05, momentum=0.1, affine=True, track_running_stats=True)
    (dropout): Dropout(p=0.5, inplace=False)
  )
  (IsoGNNModel3): GNN_Block(
    (conv1): GATv2Conv(256, 128, heads=2)
    (bn1): BatchNorm1d(128, eps=1e-05, momentum=0.1, affine=True, track_running_stats=True)
    (conv2): GATv2Conv(128, 128, heads=1)
    (bn2): BatchNorm1d(128, eps=1e-05, momentum=0.1, affine=True, track_running_stats=True)
    (dropout): Dropout(p=0.5, inplace=False)
  )
  (linear1): Linear(in_features=23596, out_features=512, bias=True)
  (linear2): Linear(in_features=512, out_features=256, bias=True)
  (linear3): Linear(in_features=256, out_features=128, bias=True)
  (layernorm1): LayerNorm((512,), eps=1e-05, elementwise_affine=True)
  (layernorm2): LayerNorm((256,), eps=1e-05, elementwise_affine=True)
  (layernorm3): LayerNorm((128,), eps=1e-05, elementwise_affine=True)
  (dropout): Dropout(p=0.3, inplace=False)
  (head): Sequential(
    (0): Dropout(p=0.5, inplace=False)
    (1): Linear(in_features=128, out_features=128, bias=True)
    (2): ReLU()
    (3): Dropout(p=0.5, inplace=False)
    (4): Linear(in_features=128, out_features=30, bias=True)
  )
)","0.5465465188026428","0.5139637589454651","0.5128939747810364","0.5416666865348816","0.5228322148323059","0.5337215065956116","0.6064586639404297","0.5437185764312744","0.5450921654701233","0.5175572633743286","0.5342601537704468","0.5323590636253357","0.5469613075256348","0.5451353788375854","0.5337021946907043","0.4237968027591706","0.500239372
…
7","0.5278687477111816","0.5375261306762695","0.49824953079223633","0.5372585654258728","0.5011523962020874","0.5477697849273682","0.5326441526412964","0.5159911513328552","0.36951518058776855","0.5403541922569275","8.781225204467773","9.365470886230469","2.7930707931518555","0.5349127054214478","11.56077766418457","81400","8.025272369384766","8.910354614257812","2.7527925968170166","0.5410078763961792","10.916672706604004",""
"Sei_ConvSplice","20128","12498","workergpu090","-","finished","50","IsoAbundanceModel(
  (IsoGNNModel1): GNN_Block(
    (conv1): GATv2Conv(20128, 512, heads=2)
    (bn1): BatchNorm1d(512, eps=1e-05, momentum=0.1, affine=True, track_running_stats=True)
    (conv2): GATv2Conv(512, 512, heads=1)
    (bn2): BatchNorm1d(512, eps=1e-05, momentum=0.1, affine=True, track_running_stats=True)
    (dropout): Dropout(p=0.5, inplace=False)
  )
  (IsoGNNModel2): GNN_Block(
    (conv1): GATv2Conv(512, 256, heads=2)
    (bn1): BatchNorm1d(256, eps=1e-05, momentum=0.1, affine=True, track_running_stats=True)
    (conv2): GATv2Conv(256, 256, heads=1)
    (bn2): BatchNorm1d(256, eps=1e-05, momentum=0.1, affine=True, track_running_stats=True)
    (dropout): Dropout(p=0.5, inplace=False)
  )
  (IsoGNNModel3): GNN_Block(
    (conv1): GATv2Conv(256, 128, heads=2)
    (bn1): BatchNorm1d(128, eps=1e-05, momentum=0.1, affine=True, track_running_stats=True)
    (conv2): GATv2Conv(128, 128, heads=1)
    (bn2): BatchNorm1d(128, eps=1e-05, momentum=0.1, affine=True, track_running_stats=True)
    (dropout): Dropout(p=0.5, inplace=False)
  )
  (linear1): Linear(in_features=20128, out_features=512, bias=True)
  (linear2): Linear(in_features=512, out_features=256, bias=True)
  (linear3): Linear(in_features=256, out_features=128, bias=True)
  (layernorm1): LayerNorm((512,), eps=1e-05, elementwise_affine=True)
  (layernorm2): LayerNorm((256,), eps=1e-05, elementwise_affine=True)
  (layernorm3): LayerNorm((128,), eps=1e-05, elementwise_affine=True)
  (dropout): Dropout(p=0.3, inplace=False)
  (head): Sequential(
    (0): Dropout(p=0.5, inplace=False)
    (1): Linear(in_features=128, out_features=128, bias=True)
    (2): ReLU()
    (3): Dropout(p=0.5, inplace=False)
    (4): Linear(in_features=128, out_features=30, bias=True)
  )
)","0.5253387093544006","0.5086590647697449","0.5016770362854004","0.5261569619178772","0.5152928829193115","0.5235294103622437","0.5855806469917297","0.5275275111198425","0.5290034413337708","0.5015121102333069","0.5198412537574768","0.5223260521888733","0.5386965274810791","0.529944658279419","0.5216733813285828","0.42121756076812744","0.492522925
…
9128952","0.5095173120498657","0.5136324763298035","0.48787978291511536","0.5074897408485413","0.48081642389297485","0.5218281149864197","0.5107994675636292","0.4988908171653747","0.3524269163608551","0.515589714050293","5.104734897613525","9.951460838317873","2.894578218460083","0.4948322772979736","11.22764492034912","81400","7.069101810455322","9.203094482421877","2.805387496948242","0.5261337757110596","10.97037124633789",""
"All_Features","23600","13046","workergpu089","-","finished","50","IsoAbundanceModel(
  (IsoGNNModel1): GNN_Block(
    (conv1): GATv2Conv(23600, 512, heads=2)
    (bn1): BatchNorm1d(512, eps=1e-05, momentum=0.1, affine=True, track_running_stats=True)
    (conv2): GATv2Conv(512, 512, heads=1)
    (bn2): BatchNorm1d(512, eps=1e-05, momentum=0.1, affine=True, track_running_stats=True)
    (dropout): Dropout(p=0.5, inplace=False)
  )
  (IsoGNNModel2): GNN_Block(
    (conv1): GATv2Conv(512, 256, heads=2)
    (bn1): BatchNorm1d(256, eps=1e-05, momentum=0.1, affine=True, track_running_stats=True)
    (conv2): GATv2Conv(256, 256, heads=1)
    (bn2): BatchNorm1d(256, eps=1e-05, momentum=0.1, affine=True, track_running_stats=True)
    (dropout): Dropout(p=0.5, inplace=False)
  )
  (IsoGNNModel3): GNN_Block(
    (conv1): GATv2Conv(256, 128, heads=2)
    (bn1): BatchNorm1d(128, eps=1e-05, momentum=0.1, affine=True, track_running_stats=True)
    (conv2): GATv2Conv(128, 128, heads=1)
    (bn2): BatchNorm1d(128, eps=1e-05, momentum=0.1, affine=True, track_running_stats=True)
    (dropout): Dropout(p=0.5, inplace=False)
  )
  (linear1): Linear(in_features=23600, out_features=512, bias=True)
  (linear2): Linear(in_features=512, out_features=256, bias=True)
  (linear3): Linear(in_features=256, out_features=128, bias=True)
  (layernorm1): LayerNorm((512,), eps=1e-05, elementwise_affine=True)
  (layernorm2): LayerNorm((256,), eps=1e-05, elementwise_affine=True)
  (layernorm3): LayerNorm((128,), eps=1e-05, elementwise_affine=True)
  (dropout): Dropout(p=0.3, inplace=False)
  (head): Sequential(
    (0): Dropout(p=0.5, inplace=False)
    (1): Linear(in_features=128, out_features=128, bias=True)
    (2): ReLU()
    (3): Dropout(p=0.5, inplace=False)
    (4): Linear(in_features=128, out_features=30, bias=True)
  )
)","0.5458669066429138","0.5213505625724792","0.5156475901603699","0.550477147102356","0.5293506383895874","0.5376344323158264","0.6027548313140869","0.5491886138916016","0.5449071526527405","0.522982656955719","0.5388470888137817","0.5389884114265442","0.5524974465370178","0.5437089204788208","0.5382278561592102","0.4248541891574859","0.50746989250
…
635","0.534721851348877","0.5341143012046814","0.5061466097831726","0.5415491461753845","0.5068746209144592","0.5506791472434998","0.5344550609588623","0.5239478349685669","0.4081818461418152","0.5332952737808228","9.186506271362305","9.078020095825195","2.725879907608032","0.5770397186279297","11.37464714050293","81400","7.923887252807617","8.678897857666016","2.6992299556732178","0.561641275882721","10.659873008728027",""
"Seqweaver_ConvSplice","3476","7706","workergpu090","-","finished","50","IsoAbundanceModel(
  (IsoGNNModel1): GNN_Block(
    (conv1): GATv2Conv(3476, 512, heads=2)
    (bn1): BatchNorm1d(512, eps=1e-05, momentum=0.1, affine=True, track_running_stats=True)
    (conv2): GATv2Conv(512, 512, heads=1)
    (bn2): BatchNorm1d(512, eps=1e-05, momentum=0.1, affine=True, track_running_stats=True)
    (dropout): Dropout(p=0.5, inplace=False)
  )
  (IsoGNNModel2): GNN_Block(
    (conv1): GATv2Conv(512, 256, heads=2)
    (bn1): BatchNorm1d(256, eps=1e-05, momentum=0.1, affine=True, track_running_stats=True)
    (conv2): GATv2Conv(256, 256, heads=1)
    (bn2): BatchNorm1d(256, eps=1e-05, momentum=0.1, affine=True, track_running_stats=True)
    (dropout): Dropout(p=0.5, inplace=False)
  )
  (IsoGNNModel3): GNN_Block(
    (conv1): GATv2Conv(256, 128, heads=2)
    (bn1): BatchNorm1d(128, eps=1e-05, momentum=0.1, affine=True, track_running_stats=True)
    (conv2): GATv2Conv(128, 128, heads=1)
    (bn2): BatchNorm1d(128, eps=1e-05, momentum=0.1, affine=True, track_running_stats=True)
    (dropout): Dropout(p=0.5, inplace=False)
  )
  (linear1): Linear(in_features=3476, out_features=512, bias=True)
  (linear2): Linear(in_features=512, out_features=256, bias=True)
  (linear3): Linear(in_features=256, out_features=128, bias=True)
  (layernorm1): LayerNorm((512,), eps=1e-05, elementwise_affine=True)
  (layernorm2): LayerNorm((256,), eps=1e-05, elementwise_affine=True)
  (layernorm3): LayerNorm((128,), eps=1e-05, elementwise_affine=True)
  (dropout): Dropout(p=0.3, inplace=False)
  (head): Sequential(
    (0): Dropout(p=0.5, inplace=False)
    (1): Linear(in_features=128, out_features=128, bias=True)
    (2): ReLU()
    (3): Dropout(p=0.5, inplace=False)
    (4): Linear(in_features=128, out_features=30, bias=True)
  )
)","0.5475591421127319","0.5144963264465332","0.5096834897994995","0.5464943051338196","0.530434787273407","0.530642032623291","0.6102819442749023","0.5431165099143982","0.5401096343994141","0.520163357257843","0.5316518545150757","0.5302325487136841","0.5441766977310181","0.5414585471153259","0.5293824672698975","0.40768885612487793","0.50706970691
…
598028183","0.48864081501960754","0.5054133534431458","0.4498057663440704","0.5109917521476746","0.45613721013069153","0.5343388915061951","0.4825248122215271","0.48290103673934937","0.3946918845176697","0.5041113495826721","8.124124526977539","9.255343437194824","2.7495057582855225","0.5524541139602661","11.286375045776367","81400","9.347901344299316","9.066662788391112","2.778268337249756","0.5144145488739014","11.40363883972168",""
"Seqweaver","3472","7763","workergpu090","-","finished","50","IsoAbundanceModel(
  (IsoGNNModel1): GNN_Block(
    (conv1): GATv2Conv(3472, 512, heads=2)
    (bn1): BatchNorm1d(512, eps=1e-05, momentum=0.1, affine=True, track_running_stats=True)
    (conv2): GATv2Conv(512, 512, heads=1)
    (bn2): BatchNorm1d(512, eps=1e-05, momentum=0.1, affine=True, track_running_stats=True)
    (dropout): Dropout(p=0.5, inplace=False)
  )
  (IsoGNNModel2): GNN_Block(
    (conv1): GATv2Conv(512, 256, heads=2)
    (bn1): BatchNorm1d(256, eps=1e-05, momentum=0.1, affine=True, track_running_stats=True)
    (conv2): GATv2Conv(256, 256, heads=1)
    (bn2): BatchNorm1d(256, eps=1e-05, momentum=0.1, affine=True, track_running_stats=True)
    (dropout): Dropout(p=0.5, inplace=False)
  )
  (IsoGNNModel3): GNN_Block(
    (conv1): GATv2Conv(256, 128, heads=2)
    (bn1): BatchNorm1d(128, eps=1e-05, momentum=0.1, affine=True, track_running_stats=True)
    (conv2): GATv2Conv(128, 128, heads=1)
    (bn2): BatchNorm1d(128, eps=1e-05, momentum=0.1, affine=True, track_running_stats=True)
    (dropout): Dropout(p=0.5, inplace=False)
  )
  (linear1): Linear(in_features=3472, out_features=512, bias=True)
  (linear2): Linear(in_features=512, out_features=256, bias=True)
  (linear3): Linear(in_features=256, out_features=128, bias=True)
  (layernorm1): LayerNorm((512,), eps=1e-05, elementwise_affine=True)
  (layernorm2): LayerNorm((256,), eps=1e-05, elementwise_affine=True)
  (layernorm3): LayerNorm((128,), eps=1e-05, elementwise_affine=True)
  (dropout): Dropout(p=0.3, inplace=False)
  (head): Sequential(
    (0): Dropout(p=0.5, inplace=False)
    (1): Linear(in_features=128, out_features=128, bias=True)
    (2): ReLU()
    (3): Dropout(p=0.5, inplace=False)
    (4): Linear(in_features=128, out_features=30, bias=True)
  )
)","0.5511022210121155","0.5203331708908081","0.5168007612228394","0.5507462620735168","0.5269368886947632","0.5369649529457092","0.6051905155181885","0.5456839799880981","0.5430693030357361","0.5222446918487549","0.5406218767166138","0.5379024147987366","0.5485485196113586","0.5435000061988831","0.5311572551727295","0.41949909925460815","0.50698792
…
","0.454213410615921","0.5076221823692322","0.530907154083252","0.4924357235431671","0.5299757719039917","0.4918328821659088","0.5451368093490601","0.5023519992828369","0.5138961672782898","0.3979095816612244","0.5270923376083374","7.04221248626709","9.180302619934082","2.767666816711426","0.5933160185813904","10.940855979919434","81400","8.274554252624512","9.231460571289062","2.806974172592163","0.5119422078132629","11.30009651184082",""
"ConvSplice","4","6795","workergpu090","-","finished","50","IsoAbundanceModel(
  (IsoGNNModel1): GNN_Block(
    (conv1): GATv2Conv(4, 512, heads=2)
    (bn1): BatchNorm1d(512, eps=1e-05, momentum=0.1, affine=True, track_running_stats=True)
    (conv2): GATv2Conv(512, 512, heads=1)
    (bn2): BatchNorm1d(512, eps=1e-05, momentum=0.1, affine=True, track_running_stats=True)
    (dropout): Dropout(p=0.5, inplace=False)
  )
  (IsoGNNModel2): GNN_Block(
    (conv1): GATv2Conv(512, 256, heads=2)
    (bn1): BatchNorm1d(256, eps=1e-05, momentum=0.1, affine=True, track_running_stats=True)
    (conv2): GATv2Conv(256, 256, heads=1)
    (bn2): BatchNorm1d(256, eps=1e-05, momentum=0.1, affine=True, track_running_stats=True)
    (dropout): Dropout(p=0.5, inplace=False)
  )
  (IsoGNNModel3): GNN_Block(
    (conv1): GATv2Conv(256, 128, heads=2)
    (bn1): BatchNorm1d(128, eps=1e-05, momentum=0.1, affine=True, track_running_stats=True)
    (conv2): GATv2Conv(128, 128, heads=1)
    (bn2): BatchNorm1d(128, eps=1e-05, momentum=0.1, affine=True, track_running_stats=True)
    (dropout): Dropout(p=0.5, inplace=False)
  )
  (linear1): Linear(in_features=4, out_features=512, bias=True)
  (linear2): Linear(in_features=512, out_features=256, bias=True)
  (linear3): Linear(in_features=256, out_features=128, bias=True)
  (layernorm1): LayerNorm((512,), eps=1e-05, elementwise_affine=True)
  (layernorm2): LayerNorm((256,), eps=1e-05, elementwise_affine=True)
  (layernorm3): LayerNorm((128,), eps=1e-05, elementwise_affine=True)
  (dropout): Dropout(p=0.3, inplace=False)
  (head): Sequential(
    (0): Dropout(p=0.5, inplace=False)
    (1): Linear(in_features=128, out_features=128, bias=True)
    (2): ReLU()
    (3): Dropout(p=0.5, inplace=False)
    (4): Linear(in_features=128, out_features=30, bias=True)
  )
)","0.4613870978355408","0.4390125870704651","0.4347422122955322","0.4532092213630676","0.4456246793270111","0.4526214599609375","0.5154304504394531","0.46073558926582336","0.4576436281204224","0.4367183446884155","0.4485798180103302","0.4543134272098541","0.46172839403152466","0.4587831199169159","0.4571428596973419","0.3521188199520111","0.4324450
…
","0.6632776260375977","0.7664980888366699","NaN","NaN","NaN","NaN","NaN","NaN","NaN","NaN","NaN","NaN","NaN","NaN","NaN","NaN","NaN","NaN","NaN","NaN","NaN","NaN","NaN","NaN","NaN","NaN","NaN","NaN","NaN","NaN","NaN","NaN","2.6144213676452637","11.640331268310549","3.199601888656616","0.287647545337677","12.293936729431152","81400","2.6249923706054688","11.087450981140137","3.1218626499176025","0.3137793242931366","11.74370288848877",""
"Sei","20124","12234","workergpu090","-","finished","50","IsoAbundanceModel(
  (IsoGNNModel1): GNN_Block(
    (conv1): GATv2Conv(20124, 512, heads=2)
    (bn1): BatchNorm1d(512, eps=1e-05, momentum=0.1, affine=True, track_running_stats=True)
    (conv2): GATv2Conv(512, 512, heads=1)
    (bn2): BatchNorm1d(512, eps=1e-05, momentum=0.1, affine=True, track_running_stats=True)
    (dropout): Dropout(p=0.5, inplace=False)
  )
  (IsoGNNModel2): GNN_Block(
    (conv1): GATv2Conv(512, 256, heads=2)
    (bn1): BatchNorm1d(256, eps=1e-05, momentum=0.1, affine=True, track_running_stats=True)
    (conv2): GATv2Conv(256, 256, heads=1)
    (bn2): BatchNorm1d(256, eps=1e-05, momentum=0.1, affine=True, track_running_stats=True)
    (dropout): Dropout(p=0.5, inplace=False)
  )
  (IsoGNNModel3): GNN_Block(
    (conv1): GATv2Conv(256, 128, heads=2)
    (bn1): BatchNorm1d(128, eps=1e-05, momentum=0.1, affine=True, track_running_stats=True)
    (conv2): GATv2Conv(128, 128, heads=1)
    (bn2): BatchNorm1d(128, eps=1e-05, momentum=0.1, affine=True, track_running_stats=True)
    (dropout): Dropout(p=0.5, inplace=False)
  )
  (linear1): Linear(in_features=20124, out_features=512, bias=True)
  (linear2): Linear(in_features=512, out_features=256, bias=True)
  (linear3): Linear(in_features=256, out_features=128, bias=True)
  (layernorm1): LayerNorm((512,), eps=1e-05, elementwise_affine=True)
  (layernorm2): LayerNorm((256,), eps=1e-05, elementwise_affine=True)
  (layernorm3): LayerNorm((128,), eps=1e-05, elementwise_affine=True)
  (dropout): Dropout(p=0.3, inplace=False)
  (head): Sequential(
    (0): Dropout(p=0.5, inplace=False)
    (1): Linear(in_features=128, out_features=128, bias=True)
    (2): ReLU()
    (3): Dropout(p=0.5, inplace=False)
    (4): Linear(in_features=128, out_features=30, bias=True)
  )
)","0.5077075958251953","0.4856719374656677","0.4892498850822449","0.5104166865348816","0.5002567768096924","0.5012165307998657","0.5655512809753418","0.5131906270980835","0.5064356327056885","0.48146292567253113","0.4982733130455017","0.5018200874328613","0.5083375573158264","0.5054617524147034","0.5017421841621399","0.4100719392299652","0.46650829
…
